…
100/100 [==============================] - 0s 4ms/step - loss: 0.0545 - accuracy: 0.9782 - val_loss: 0.0508 - val_accuracy: 0.9800
Epoch 10/10
100/100 [==============================] - 0s 5ms/step - loss: 0.0444 - accuracy: 0.9845 - val_loss: 0.0501 - val_accuracy: 0.9950
test data loss : 0.05598010495305061
test data acc : 0.9850000143051147
t=1 model answer : [[0.02933113 0.9706689 ]]
t=0 model answer : [[0.9974444  0.00255559]]

maxpool 増やしすぎ
_________________________________________________________________
Layer (type)                 Output Shape              Param #   
=================================================================
conv2d (Conv2D)              (None, 124, 124, 1)       26        
_________________________________________________________________
max_pooling2d (MaxPooling2D) (None, 62, 62, 1)         0         
_________________________________________________________________
max_pooling2d_1 (MaxPooling2 (None, 31, 31, 1)         0         
_________________________________________________________________
max_pooling2d_2 (MaxPooling2 (None, 15, 15, 1)         0         
_________________________________________________________________
max_pooling2d_3 (MaxPooling2 (None, 7, 7, 1)           0         
_________________________________________________________________
max_pooling2d_4 (MaxPooling2 (None, 3, 3, 1)           0         
_________________________________________________________________
max_pooling2d_5 (MaxPooling2 (None, 1, 1, 1)           0         
_________________________________________________________________
flatten (Flatten)            (None, 1)                 0         
_________________________________________________________________
dense (Dense)                (None, 2)                 4         
=================================================================
Total params: 30
Trainable params: 30
Non-trainable params: 0
_________________________________________________________________


100/100 [==============================] - 2s 9ms/step - loss: 0.6660 - accuracy: 0.5751 - val_loss: 0.6660 - val_accuracy: 0.5250
Epoch 2/20
100/100 [==============================] - 0s 5ms/step - loss: 0.6597 - accuracy: 0.6771 - val_loss: 0.6612 - val_accuracy: 0.5400
…
100/100 [==============================] - 0s 5ms/step - loss: 0.4933 - accuracy: 0.9479 - val_loss: 0.4931 - val_accuracy: 0.9350
Epoch 20/20
100/100 [==============================] - 0s 5ms/step - loss: 0.4769 - accuracy: 0.9535 - val_loss: 0.4841 - val_accuracy: 0.9300
test data loss : 0.47701558470726013
test data acc : 0.9200000166893005
t=1 model answer : [[0.44935998 0.55064005]]
t=0 model answer : [[0.71010196 0.289898  ]]


ノーマルのやつ
_________________________________________________________________
Layer (type)                 Output Shape              Param #   
=================================================================
conv2d (Conv2D)              (None, 124, 124, 32)      832       
_________________________________________________________________
max_pooling2d (MaxPooling2D) (None, 62, 62, 32)        0         
_________________________________________________________________
conv2d_1 (Conv2D)            (None, 60, 60, 64)        18496     
_________________________________________________________________
flatten (Flatten)            (None, 230400)            0         
_________________________________________________________________
dense (Dense)                (None, 64)                14745664  
_________________________________________________________________
dense_1 (Dense)              (None, 10)                650       
_________________________________________________________________
dense_2 (Dense)              (None, 2)                 22        
=================================================================
Total params: 14,765,664
Trainable params: 14,765,664
Non-trainable params: 0
_________________________________________________________________

75/75 [==============================] - 5s 44ms/step - loss: 0.6307 - accuracy: 0.7254 - val_loss: 0.0855 - val_accuracy: 0.9750
Epoch 2/20
75/75 [==============================] - 3s 36ms/step - loss: 0.0860 - accuracy: 0.9748 - val_loss: 0.1203 - val_accuracy: 0.9800
…
